backend/model/chess_model_v11_rerun.pth (torch, 69396 bytes, 5 tensors)

fc1.weight f4 [128, 64]
00000000: b10d 0080 a100 0080 e10d 0000 750e 0080
00000010: 500c 0080 bc0d 0080 c705 0000 5d11 0080
00000020: f205 0000 3810 0080 330e 0080 7210 0080
00000030: 840f 0080 4804 0000 4107 0080 050d 0080
00000040: a60f 0080 0c0e 0000 240e 0080 1102 0080
00000050: e00d 0080 5900 0000 560f 0080 7611 0080
00000060: 040e 0080 1510 0000 e007 0000 0008 0000
00000070: e90d 0080 9805 0000 ea0b 0080 6a0e 0080
00000080: 510f 0080 4e03 0000 ae10 0000 a10e 0080
00000090: 500f 0080 b60d 0000 da0e 0000 dc0d 0000
000000a0: 3c0d 0000 570e 0080 270e 0000 cf0f 0000
000000b0: bc0f 0080 860e 0080 5e11 0000 210e 0000
000000c0: 740b 0080 8c01 0080 220e 0000 2111 0000
000000d0: ec0e 0000 160f 0000 640d 0080 530f 0000
000000e0: 1503 0000 db0e 0000 1a11 0000 870e 0000
000000f0: d00d 0000 9e10 0000 5510 0000 b00e 0080
00000100: 120e 0080 5911 0080 ae0d 0000 a90e 0080
00000110: 4b0e 0000 040f 0080 3411 0000 d30d 0080
00000120: 3811 0000 e810 0080 800e 0000 e10d 0080
00000130: 6e0e 0080 890e 0080 a510 0000 0d10 0080
00000140: 5811 0000 a90c 0000 fb0d 0000 c210 0000
00000150: 9c0e 0000 6110 0000 c90d 0000 100e 0080
00000160: e010 0000 7104 0000 ae0d 0000 d20d 0000
00000170: 890e 0000 3a0e 0000 4e0e 0080 de0f 0000
00000180: 9f05 0080 7b10 0000 5b0f 0000 800f 0000
00000190: 8e0e 0080 fd0d 0000 0e0d 0000 0e0f 0080
000001a0: f80f 0000 1210 0000 ba0d 0000 2a0e 0080
000001b0: 120e 0000 a20e 0080 ae0e 0080 770e 0000
000001c0: b40e 0080 d40d 0000 120e 0000 950f 0080
000001d0: 300e 0080 6c0e 0000 c20d 0080 180e 0080
000001e0: eb0d 0000 c40f 0080 0c0e 0000 360e 0080
000001f0: f40e 0080 c410 0000 1a0e 0000 bb0d 0080
00000200: 050f 0000 f10d 0080 6e0e 0080 e40d 0080
00000210: 470e 0080 f70d 0000 c40d 0080 ba0a 0080
00000220: 3f07 0000 420e 0000 3011 0080 5f0e 0080
00000230: ce0d 0000 1510 0000 8b0e 0000 0c0e 0080
00000240: ca0e 0000 9e0a 0080 7e0e 0080 e90f 0000
00000250: eb0b 0000 e50d 0080 490e 0080 d30e 0000
00000260: 530e 0080 a20e 0080 4f0e 0000 c90d 0000
00000270: 890b 0080 8110 0080 4b0e 0080 1d0e 0000
00000280: 0d0d 0000 df0d 0000 c210 0000 da0d 0000
00000290: b80f 0000 490e 0000 e10d 0080 980e 0000
000002a0: 0d0f 0080 bf0f 0000 f00d 0080 f80d 0000
000002b0: 2b0b 0000 280f 0080 0610 0080 250e 0000
000002c0: 160e 0000 380e 0080 7a0e 0080 f50d 0080
000002d0: 2f10 0080 6b0d 0000 d10d 0000 a509 0000
000002e0: 440e 0080 660f 0000 ac0e 0000 5d0e 0000
000002f0: 290f 0080 040e 0000 f00f 0000 3f0e 0000
00000300: a00e 0080 1c07 0080 870e 0080 d00e 0000
00000310: c40d 0080 ff0e 0080 1b0e 0080 fe0c 0000
00000320: ee0d 0000 a810 0080 160e 0080 f80d 0000
00000330: 4711 0000 c50d 0000 8011 0080 580c 0080
00000340: dc10 0000 d70d 0000 040e 0000 430e 0080
00000350: 610e 0000 0b05 0000 ec0d 0080 d20d 0080
00000360: 210e 0000 0b0e 0080 2b0d 0000 a50e 0080
00000370: 0e10 0000 f80d 0080 260e 0000 110e 0000
00000380: c40d 0080 170e 0000 cc0f 0000 ad0d 0080
00000390: e80d 0000 4d0f 0000 3a0e 0080 430f 0000
000003a0: 5b0f 0000 000e 0080 0b0e 0000 9610 0000
000003b0: dc0d 0080 3d0e 0000 090f 0000 ba0e 0000
000003c0: 4b0e 0080 4311 0080 c50d 0080 0b11 0080
000003d0: 0c0f 0080 b40e 0000 a00e 0080 1e0e 0080
000003e0: 270e 0000 300e 0000 4111 0000 d90d 0000
000003f0: 140e 0080 f40d 0000 a60e 0000 360e 0000
-4.912e-42 -2.26e-43 4.979e-42 -5.186e-42 -4.417e-42 -4.927e-42 2.073e-42 -6.229e-42
2.133e-42 -5.818e-42 -5.094e-42 -5.9e-42 -5.566e-42 1.536e-42 -2.602e-42 -4.67e-42
-5.614e-42 5.039e-42 -5.073e-42 -7.41e-43 -4.977e-42 1.25e-43 -5.501e-42 -6.264e-42
-5.028e-42 5.769e-42 2.825e-42 2.87e-42 -4.99e-42 2.007e-42 -4.274e-42 -5.171e-42
-5.494e-42 1.185e-42 5.984e-42 -5.248e-42 -5.493e-42 4.919e-42 5.328e-42 4.972e-42
4.748e-42 -5.144e-42 5.077e-42 5.671e-42 -5.644e-42 -5.21e-42 6.23e-42 5.068e-42
-4.109e-42 -5.55e-43 5.07e-42 6.145e-42 5.353e-42 5.412e-42 -4.804e-42 5.497e-42
1.106e-42 5.329e-42 6.135e-42 5.211e-42 4.955e-42 5.961e-42 5.859e-42 -5.269e-42
-5.047e-42 -6.223e-42 4.907e-42 -5.259e-42 5.127e-42 -5.387e-42 6.171e-42 -4.959e-42
6.177e-42 -6.065e-42 5.202e-42 -4.979e-42 -5.176e-42 -5.214e-42 5.971e-42 -5.758e-42
6.222e-42 4.542e-42 5.015e-42 6.012e-42 5.241e-42 5.876e-42 4.945e-42 -5.045e-42
6.054e-42 1.593e-42 4.907e-42 4.958e-42 5.214e-42 5.104e-42 -5.132e-42 5.692e-42
-2.016e-42 5.912e-42 5.509e-42 5.56e-42 -5.221e-42 5.018e-42 4.683e-42 -5.4e-42
5.729e-42 5.765e-42 4.924e-42 -5.081e-42 5.047e-42 -5.249e-42 -5.266e-42 5.189e-42
-5.274e-42 4.96e-42 5.047e-42 -5.59e-42 -5.09e-42 5.174e-42 -4.935e-42 -5.056e-42
4.993e-42 -5.656e-42 5.039e-42 -5.098e-42 -5.364e-42 6.014e-42 5.059e-42 -4.926e-42
5.388e-42 -5.001e-42 -5.176e-42 -4.983e-42 -5.122e-42 5.01e-42 -4.938e-42 -3.848e-42
2.6e-42 5.115e-42 -6.166e-42 -5.155e-42 4.952e-42 5.769e-42 5.217e-42 -5.039e-42
5.305e-42 -3.809e-42 -5.199e-42 5.707e-42 4.275e-42 -4.984e-42 -5.125e-42 5.318e-42
-5.139e-42 -5.249e-42 5.133e-42 4.945e-42 -4.138e-42 -5.92e-42 -5.127e-42 5.063e-42
4.682e-42 4.976e-42 6.012e-42 4.969e-42 5.639e-42 5.125e-42 -4.979e-42 5.235e-42
-5.399e-42 5.649e-42 -5e-42 5.011e-42 4.006e-42 -5.437e-42 -5.748e-42 5.074e-42
5.053e-42 -5.101e-42 -5.193e-42 -5.007e-42 -5.806e-42 4.813e-42 4.956e-42 3.46e-42
-5.118e-42 5.524e-42 5.263e-42 5.153e-42 -5.438e-42 5.028e-42 5.717e-42 5.11e-42
-5.246e-42 -2.55e-42 -5.211e-42 5.314e-42 -4.938e-42 -5.38e-42 -5.06e-42 4.661e-42
4.997e-42 -5.975e-42 -5.053e-42 5.011e-42 6.198e-42 4.94e-42 -6.278e-42 -4.428e-42
6.048e-42 4.965e-42 5.028e-42 -5.116e-42 5.158e-42 1.809e-42 -4.994e-42 -4.958e-42
5.068e-42 -5.038e-42 4.724e-42 -5.253e-42 5.76e-42 -5.011e-42 5.076e-42 5.046e-42
-4.938e-42 5.054e-42 5.667e-42 -4.906e-42 4.989e-42 5.489e-42 -5.104e-42 5.475e-42
5.509e-42 -5.022e-42 5.038e-42 5.95e-42 -4.972e-42 5.108e-42 5.394e-42 5.283e-42
-5.127e-42 -6.192e-42 -4.94e-42 -6.114e-42 -5.398e-42 5.274e-42 -5.246e-42 -5.064e-42
5.077e-42 5.09e-42 6.19e-42 4.968e-42 -5.05e-42 5.005e-42 5.255e-42 5.098e-42

fc1.bias f4 [128]
00000000: cc04 0080 0b0f 0080 750e 0080 d70d 0080
00000010: f60e 0080 ac0d 0000 1005 0080 880a 0080
00000020: be0d 0080 a00c 0000 9b0f 0080 a90c 0080
00000030: 0e0e 0080 7f08 0000 640f 0080 0e0d 0000
00000040: ca0f 0080 d30d 0000 2607 0080 3a0f 0080
00000050: ae0e 0080 e70c 0080 ea0f 0000 440f 0080
00000060: ad0e 0000 ef02 0000 7c04 0000 330e 0080
00000070: c204 0080 060c 0080 c30e 0080 400f 0080
00000080: e50e 0080 c60b 0000 8210 0000 b70a 0000
00000090: f306 0000 210e 0080 e80f 0080 0a0f 0080
000000a0: 6a0c 0080 e30f 0080 0b11 0080 7602 0000
000000b0: 0f11 0080 9b0f 0080 850d 0080 970e 0000
000000c0: a309 0000 eb0d 0000 ee0e 0080 9010 0080
000000d0: 370e 0080 a905 0080 9b0a 0080 d00d 0080
000000e0: 0603 0080 7610 0080 4303 0000 390e 0000
000000f0: 4f0f 0000 f409 0080 5d0f 0000 360e 0000
00000100: ae0d 0080 7b10 0080 ae0d 0000 4d03 0080
00000110: a30f 0080 640b 0080 500c 0000 670f 0000
00000120: d601 0000 8e0a 0080 7810 0080 5e0e 0000
00000130: f103 0080 3305 0080 b80b 0080 6809 0000
00000140: 5504 0080 cf0f 0080 9c0f 0080 d303 0080
00000150: 400e 0080 9b04 0080 8711 0000 fd0c 0000
00000160: 1710 0080 470c 0080 000f 0000 5d0e 0080
00000170: bd10 0000 cb0f 0000 5410 0080 450c 0080
00000180: c910 0080 c90a 0000 4e0e 0080 9403 0080
00000190: e70e 0080 0106 0000 120e 0080 cf0e 0080
000001a0: 730e 0080 6311 0080 8c0e 0080 7d0f 0000
000001b0: 8b02 0000 550e 0080 b50d 0000 a40e 0000
000001c0: ad0d 0000 c60e 0080 e50e 0000 6f00 0080
000001d0: b10d 0080 560f 0080 8d0e 0080 ff02 0000
000001e0: 9303 0000 310e 0080 cb10 0080 5d11 0080
000001f0: 0903 0080 960f 0080 c90d 0080 2a11 0080
-1.721e-42 -5.396e-42 -5.186e-42 -4.965e-42 -5.367e-42 4.905e-42 -1.816e-42 -3.778e-42
-4.93e-42 4.529e-42 -5.598e-42 -4.542e-42 -5.042e-42 3.048e-42 -5.521e-42 4.683e-42
-5.664e-42 4.959e-42 -2.564e-42 -5.462e-42 -5.266e-42 -4.628e-42 5.709e-42 -5.476e-42
5.265e-42 1.052e-42 1.609e-42 -5.094e-42 -1.707e-42 -4.313e-42 -5.296e-42 -5.47e-42
-5.343e-42 4.224e-42 5.922e-42 3.844e-42 2.493e-42 -5.068e-42 -5.706e-42 -5.395e-42
-4.453e-42 -5.699e-42 -6.114e-42 8.83e-43 -6.12e-42 -5.598e-42 -4.85e-42 5.234e-42
3.457e-42 4.993e-42 -5.356e-42 -5.942e-42 -5.1e-42 -2.03e-42 -3.805e-42 -4.955e-42
-1.085e-42 -5.905e-42 1.17e-42 5.102e-42 5.492e-42 -3.57e-42 5.511e-42 5.098e-42
-4.907e-42 -5.912e-42 4.907e-42 -1.184e-42 -5.61e-42 -4.086e-42 4.417e-42 5.525e-42
6.59e-43 -3.786e-42 -5.908e-42 5.154e-42 -1.414e-42 -1.865e-42 -4.204e-42 3.374e-42
-1.554e-42 -5.671e-42 -5.6e-42 -1.372e-42 -5.112e-42 -1.652e-42 6.288e-42 4.66e-42
-5.772e-42 -4.404e-42 5.381e-42 -5.153e-42 6.005e-42 5.665e-42 -5.857e-42 -4.401e-42
-6.021e-42 3.869e-42 -5.132e-42 -1.284e-42 -5.346e-42 2.154e-42 -5.047e-42 -5.312e-42
-5.183e-42 -6.237e-42 -5.218e-42 5.556e-42 9.12e-43 -5.141e-42 4.917e-42 5.252e-42
4.906e-42 -5.3e-42 5.343e-42 -1.56e-43 -4.912e-42 -5.501e-42 -5.22e-42 1.075e-42
1.282e-42 -5.091e-42 -6.024e-42 -6.229e-42 -1.089e-42 -5.591e-42 -4.945e-42 -6.157e-42

fc2.weight f4 [64, 128]
00000000: d50d 0000 c90d 0080 c20d 0000 dd0e 0000
00000010: bb0d 0000 d70d 0080 e20d 0080 cc0d 0000
00000020: c30d 0000 3b0e 0080 e10d 0080 cf0d 0000
00000030: ff0d 0080 d70d 0000 b10d 0080 ae0d 0080
00000040: bc0d 0080 fa0d 0080 290e 0080 fd0d 0000
00000050: b10d 0080 c00d 0080 c00d 0080 de0d 0080
00000060: 2a0e 0000 ca0d 0080 c80d 0000 ce0d 0080
00000070: c10d 0000 e10d 0000 e30d 0080 e10d 0000
00000080: de0d 0000 b60d 0080 bd0d 0000 bd0d 0080
00000090: c20d 0080 d80d 0000 c80d 0080 230e 0080
000000a0: b00d 0000 150e 0080 b20d 0080 ce0d 0000
000000b0: cb0d 0080 ca0d 0080 b70d 0000 e60d 0080
000000c0: c70d 0080 c30d 0000 e70d 0080 f80d 0000
000000d0: ad0d 0000 db0d 0080 160e 0080 ea0d 0080
000000e0: cd0d 0000 b80d 0080 ca0d 0080 db0d 0080
000000f0: ce0d 0000 b80d 0080 c10d 0000 d00d 0000
00000100: ae0d 0080 0a11 0000 da0d 0000 df0d 0000
00000110: d10d 0000 e10d 0000 cf0d 0000 bb0d 0080
00000120: b60d 0080 c70d 0000 c60d 0080 2a0e 0000
00000130: e60d 0080 c20d 0080 e50d 0080 ce0d 0000
00000140: 6c0e 0000 bb0d 0080 ae0d 0080 f00d 0080
00000150: dd0d 0080 bb0d 0080 ed0d 0080 c00d 0080
00000160: cd0d 0000 c60d 0000 c90d 0080 e80d 0080
00000170: d50d 0080 e20d 0080 c70d 0000 c40d 0080
00000180: ed0d 0000 c50d 0080 d10d 0000 b10d 0000
00000190: d00d 0000 bc0d 0000 c00d 0000 b90d 0080
000001a0: e10d 0000 b50d 0000 fc0d 0000 350e 0000
000001b0: ed0d 0000 df0d 0000 da0e 0000 ac0d 0000
000001c0: c80d 0080 ca0d 0080 af0d 0000 b20d 0080
000001d0: b60d 0000 bc0d 0080 a10e 0000 b20d 0080
000001e0: ee10 0080 d40d 0000 ec0d 0000 b30d 0000
000001f0: d50d 0080 db0d 0080 b80d 0080 be0d 0000
00000200: e801 0000 d80d 0080 2f0e 0000 c70d 0000
00000210: bf0d 0000 0f0e 0080 bf0d 0000 c30d 0000
00000220: fb0c 0000 d409 0080 ea0d 0080 d20d 0080
00000230: f70d 0000 c60d 0080 db0b 0080 c50d 0080
00000240: 6b0b 0000 fc0b 0080 b30d 0080 040e 0000
00000250: d40d 0080 c60d 0000 d30d 0080 ee0d 0080
00000260: 2b0e 0000 ec0d 0000 c70d 0000 ee0d 0080
00000270: e70d 0000 bd0d 0080 b50d 0000 d104 0000
00000280: fb0d 0080 ec0d 0080 b20d 0000 d50d 0000
00000290: b90d 0000 c30c 0080 b40d 0080 b70d 0080
000002a0: f40a 0080 d90d 0080 0a08 0000 050e 0000
000002b0: 4a0c 0080 ac0d 0000 b00d 0080 b80d 0080
000002c0: f30b 0000 d50d 0000 b20d 0080 190b 0080
000002d0: fc0d 0000 e308 0080 cd0d 0000 dc0d 0000
000002e0: e00d 0000 ce0d 0080 c50d 0000 af0d 0080
000002f0: e30d 0080 d40d 0000 680a 0080 eb0d 0080
00000300: 3f06 0080 bf0d 0000 130e 0000 de0d 0080
00000310: cd0d 0000 e30d 0080 fe0d 0080 fa0d 0000
00000320: bb07 0080 c00d 0080 a505 0080 c80d 0000
00000330: e40b 0080 fa10 0000 e40d 0080 cc0d 0080
00000340: a90f 0000 e50d 0000 c40d 0080 ae0d 0000
00000350: d50b 0080 d60d 0080 8604 0000 bd0d 0080
00000360: 810e 0000 d50d 0080 be0a 0080 ae0d 0080
00000370: 240d 0000 270c 0080 ad0d 0080 d00d 0080
00000380: ff0d 0080 f20d 0080 b70d 0080 4410 0000
00000390: d70d 0080 510a 0080 f00d 0000 030a 0080
000003a0: 120a 0080 ca0d 0080 f30d 0080 ca0d 0000
000003b0: 130e 0080 b70d 0080 be0d 0080 da0d 0080
000003c0: f20d 0000 c80d 0000 c70d 0080 c20d 0080
000003d0: ee0a 0000 aa0b 0080 180e 0000 210e 0080
000003e0: a710 0080 300b 0000 a30b 0080 1a0e 0080
000003f0: 2e0e 0080 3d0e 0000 0c0e 0000 ca0d 0080
4.962e-42 -4.945e-42 4.935e-42 5.332e-42 4.926e-42 -4.965e-42 -4.98e-42 4.95e-42
4.937e-42 -5.105e-42 -4.979e-42 4.954e-42 -5.021e-42 4.965e-42 -4.912e-42 -4.907e-42
-4.927e-42 -5.014e-42 -5.08e-42 5.018e-42 -4.912e-42 -4.933e-42 -4.933e-42 -4.975e-42
5.081e-42 -4.947e-42 4.944e-42 -4.952e-42 4.934e-42 4.979e-42 -4.982e-42 4.979e-42
4.975e-42 -4.919e-42 4.928e-42 -4.928e-42 -4.935e-42 4.966e-42 -4.944e-42 -5.071e-42
4.91e-42 -5.052e-42 -4.913e-42 4.952e-42 -4.948e-42 -4.947e-42 4.92e-42 -4.986e-42
-4.942e-42 4.937e-42 -4.987e-42 5.011e-42 4.906e-42 -4.97e-42 -5.053e-42 -4.991e-42
4.951e-42 -4.921e-42 -4.947e-42 -4.97e-42 4.952e-42 -4.921e-42 4.934e-42 4.955e-42
-4.907e-42 6.112e-42 4.969e-42 4.976e-42 4.956e-42 4.979e-42 4.954e-42 -4.926e-42
-4.919e-42 4.942e-42 -4.941e-42 5.081e-42 -4.986e-42 -4.935e-42 -4.984e-42 4.952e-42
5.174e-42 -4.926e-42 -4.907e-42 -5e-42 -4.973e-42 -4.926e-42 -4.996e-42 -4.933e-42
4.951e-42 4.941e-42 -4.945e-42 -4.989e-42 -4.962e-42 -4.98e-42 4.942e-42 -4.938e-42
4.996e-42 -4.94e-42 4.956e-42 4.912e-42 4.955e-42 4.927e-42 4.933e-42 -4.923e-42
4.979e-42 4.917e-42 5.017e-42 5.097e-42 4.996e-42 4.976e-42 5.328e-42 4.905e-42
-4.944e-42 -4.947e-42 4.909e-42 -4.913e-42 4.919e-42 -4.927e-42 5.248e-42 -4.913e-42
-6.073e-42 4.96e-42 4.994e-42 4.914e-42 -4.962e-42 -4.97e-42 -4.921e-42 4.93e-42
6.84e-43 -4.966e-42 5.088e-42 4.942e-42 4.931e-42 -5.043e-42 4.931e-42 4.937e-42
4.657e-42 -3.526e-42 -4.991e-42 -4.958e-42 5.01e-42 -4.941e-42 -4.253e-42 -4.94e-42
4.096e-42 -4.299e-42 -4.914e-42 5.028e-42 -4.96e-42 4.941e-42 -4.959e-42 -4.997e-42
5.083e-42 4.994e-42 4.942e-42 -4.997e-42 4.987e-42 -4.928e-42 4.917e-42 1.728e-42
-5.015e-42 -4.994e-42 4.913e-42 4.962e-42 4.923e-42 -4.578e-42 -4.916e-42 -4.92e-42
-3.929e-42 -4.968e-42 2.884e-42 5.029e-42 -4.408e-42 4.905e-42 -4.91e-42 -4.921e-42
4.287e-42 4.962e-42 -4.913e-42 -3.981e-42 5.017e-42 -3.188e-42 4.951e-42 4.972e-42
4.977e-42 -4.952e-42 4.94e-42 -4.909e-42 -4.982e-42 4.96e-42 -3.733e-42 -4.993e-42
-2.24e-42 4.931e-42 5.049e-42 -4.975e-42 4.951e-42 -4.982e-42 -5.02e-42 5.014e-42
-2.773e-42 -4.933e-42 -2.025e-42 4.944e-42 -4.266e-42 6.09e-42 -4.983e-42 -4.95e-42
5.618e-42 4.984e-42 -4.938e-42 4.907e-42 -4.245e-42 -4.963e-42 1.623e-42 -4.928e-42
5.203e-42 -4.962e-42 -3.854e-42 -4.907e-42 4.714e-42 -4.36e-42 -4.906e-42 -4.955e-42
-5.021e-42 -5.003e-42 -4.92e-42 5.835e-42 -4.965e-42 -3.701e-42 5e-42 -3.592e-42
-3.613e-42 -4.947e-42 -5.004e-42 4.947e-42 -5.049e-42 -4.92e-42 -4.93e-42 -4.969e-42
5.003e-42 4.944e-42 -4.942e-42 -4.935e-42 3.921e-42 -4.184e-42 5.056e-42 -5.068e-42
-5.974e-42 4.013e-42 -4.174e-42 -5.059e-42 -5.087e-42 5.108e-42 5.039e-42 -4.947e-42

fc2.bias f4 [64]
00000000: bc0d 0080 ad0d 0080 dc0d 0080 b60d 0080
00000010: c70d 0080 bf0d 0080 cc0d 0080 bd0d 0080
00000020: c80d 0080 b60d 0080 d90d 0080 b10d 0080
00000030: eb0d 0080 b00d 0080 b80d 0080 c90d 0080
00000040: b60d 0080 b30d 0080 cc0d 0080 d30d 0080
00000050: bb0d 0080 ca0d 0080 b10d 0080 b30d 0080
00000060: b30d 0080 ac0d 0080 b60d 0080 d40d 0080
00000070: cb0d 0080 c20d 0080 ad0d 0080 b80d 0080
00000080: cd0d 0080 ae0d 0080 c30d 0080 ac0d 0080
00000090: b20d 0080 8811 0080 c20d 0080 6e0f 0080
000000a0: ad0d 0080 5510 0080 b80d 0080 c20d 0080
000000b0: c20d 0080 c30d 0080 be0d 0080 b60d 0080
000000c0: ca0d 0080 e10d 0080 bc0d 0080 7910 0080
000000d0: e40d 0080 b10d 0080 c80d 0080 b70d 0080
000000e0: cf0d 0080 b80d 0080 b30d 0080 e50d 0080
000000f0: c20d 0080 cc0d 0080 b40d 0080 c10d 0080
-4.927e-42 -4.906e-42 -4.972e-42 -4.919e-42 -4.942e-42 -4.931e-42 -4.95e-42 -4.928e-42
-4.944e-42 -4.919e-42 -4.968e-42 -4.912e-42 -4.993e-42 -4.91e-42 -4.921e-42 -4.945e-42
-4.919e-42 -4.914e-42 -4.95e-42 -4.959e-42 -4.926e-42 -4.947e-42 -4.912e-42 -4.914e-42
-4.914e-42 -4.905e-42 -4.919e-42 -4.96e-42 -4.948e-42 -4.935e-42 -4.906e-42 -4.921e-42
-4.951e-42 -4.907e-42 -4.937e-42 -4.905e-42 -4.913e-42 -6.289e-42 -4.935e-42 -5.535e-42
-4.906e-42 -5.859e-42 -4.921e-42 -4.935e-42 -4.935e-42 -4.937e-42 -4.93e-42 -4.919e-42
-4.947e-42 -4.979e-42 -4.927e-42 -5.909e-42 -4.983e-42 -4.912e-42 -4.944e-42 -4.92e-42
-4.954e-42 -4.921e-42 -4.914e-42 -4.984e-42 -4.935e-42 -4.95e-42 -4.916e-42 -4.934e-42

fc3.weight f4 [1, 64]
00000000: c70d 0000 b80d 0000 d10d 0000 b60d 0080
00000010: 460b 0000 d10d 0000 bc0d 0080 da0d 0080
00000020: dd0d 0000 b90d 0080 e20d 0080 720a 0000
00000030: b80d 0080 eb0d 0080 b10d 0000 ba0d 0080
00000040: be0d 0080 af0d 0000 af0d 0080 b40d 0080
00000050: 1f0e 0000 ac0d 0000 b80d 0000 b70d 0000
00000060: ae0d 0000 ba0d 0000 cd0d 0080 d00d 0080
00000070: 9503 0080 b60d 0080 b90b 0000 ad0d 0080
00000080: c60d 0080 ea0d 0080 cf0d 0080 b10d 0080
00000090: b40d 0080 b30d 0080 d40d 0000 b00d 0080
000000a0: b80d 0000 b60d 0000 e40d 0000 fa0d 0000
000000b0: c60d 0000 b50d 0000 fe0d 0000 e00d 0000
000000c0: df0d 0080 c80d 0080 ae0d 0080 db0d 0000
000000d0: e30d 0080 df0d 0000 ac0d 0000 b60d 0000
000000e0: 3f11 0000 d50d 0080 c60d 0000 db0d 0000
000000f0: d70d 0080 ea0d 0000 e60d 0000 bb0d 0000
4.942e-42 4.921e-42 4.956e-42 -4.919e-42 4.044e-42 4.956e-42 -4.927e-42 -4.969e-42
4.973e-42 -4.923e-42 -4.98e-42 3.747e-42 -4.921e-42 -4.993e-42 4.912e-42 -4.924e-42
-4.93e-42 4.909e-42 -4.909e-42 -4.916e-42 5.066e-42 4.905e-42 4.921e-42 4.92e-42
4.907e-42 4.924e-42 -4.951e-42 -4.955e-42 -1.285e-42 -4.919e-42 4.205e-42 -4.906e-42
-4.941e-42 -4.991e-42 -4.954e-42 -4.912e-42 -4.916e-42 -4.914e-42 4.96e-42 -4.91e-42
4.921e-42 4.919e-42 4.983e-42 5.014e-42 4.941e-42 4.917e-42 5.02e-42 4.977e-42
-4.976e-42 -4.944e-42 -4.907e-42 4.97e-42 -4.982e-42 4.976e-42 4.905e-42 4.919e-42
6.187e-42 -4.962e-42 4.941e-42 4.97e-42 -4.965e-42 4.991e-42 4.986e-42 4.926e-42
